model.pth (torch, 17216 bytes, 4 tensors)

linear1.weight f4 [256, 11]
-0.34930623 -0.31748813 0.29792926 0.2042222 -0.1954388 -0.45724893 0.22646192 0.4558613
-0.47306415 -0.18122397 -0.299698 0.09766284 -0.5845824 0.30660132 -0.25805587 0.12597054
-0.23552601 0.073084444 0.27218384 -0.19279556 0.16390194 0.057062604 -0.3365811 0.15901572
0.51504046 -0.28173423 0.353961 0.053494968 0.21500771 -0.5151321 -0.186121 0.22674812
0.055281322 -0.011921421 -0.4190144 -0.05777192 -0.21071538 -0.26638323 -0.27562174 -0.111058004
0.24296683 0.3427621 0.29258054 0.25929484 -0.10967055 0.11079394 0.4502139 0.19434264
-0.20950355 -0.12453691 -0.5995285 0.1871452 -0.26849768 0.0708117 -0.3272961 0.066957265
0.4942324 0.26783642 0.13120344 -0.17661838 0.22209796 0.03862953 -0.14053363 0.41832498
-0.18412316 0.13293843 -0.23920666 0.093811475 -0.014456646 0.17892627 -0.34071615 -0.3070124
0.50378597 -0.4156597 -0.29050818 -0.33029097 0.46766013 -0.013067721 -0.22607237 0.03056578
-0.306927 0.2978343 -0.24453914 0.17774574 -0.3516963 -0.33177668 -0.30440423 0.3132225
-0.00021482451 0.19684155 0.13331287 -0.35525292 -0.44156787 -0.3540529 0.27286556 -0.41180447
-0.39616084 -0.0077201864 0.31720883 0.066403195 -0.025762439 -0.20406702 -0.17963502 -0.119105816
-0.27064702 -0.27805778 -0.22630468 -0.29628932 0.15987045 0.19401711 -0.08538048 0.10230745
-0.024976403 0.028376276 -0.037451148 -0.10091868 -0.034539122 -0.02804303 -0.2409207 -0.10014194
-0.20153867 0.35836124 0.4789924 0.36540443 -0.16879144 -0.1939243 -0.196529 -0.042891197
0.3501124 0.5429471 0.25785854 0.31718457 -0.31160554 0.37151065 0.40239167 0.041595373
0.0428735 -0.3676778 0.13539843 0.41797623 0.38474876 -0.048522823 0.13201182 -0.38067496
0.15687524 -0.36280522 0.05451869 -0.26372856 0.19523577 -0.14201742 -0.039036285 -0.30801228
-0.23217714 0.08405485 0.289936 0.03761539 -0.177443 -0.26829416 0.16090412 -0.28198725
0.2039347 0.3247109 -0.07346726 0.3957835 -0.04443637 0.29058537 0.62599 -0.10430164
-0.08512368 0.12116403 -0.19329289 -0.06902453 0.3312683 0.09075929 0.36271152 0.26470062
0.71016055 -0.21401708 -0.3340684 -0.055019736 -0.09152171 0.29515833 0.16734011 0.061651226
0.14155988 -0.22452568 -0.23429862 -0.2558899 0.22098422 0.227329 -0.18693228 0.3006798
0.2945083 -0.017357055 0.3693277 -0.20933071 -0.5047816 -0.084010705 -0.16079693 0.0017696279
0.36821774 -0.033736557 -0.028191362 0.0972455 -0.34724614 0.012893541 0.32005858 -0.17274417
-0.1892261 -0.021423614 0.02218489 -0.09662368 -0.23822767 -0.46895355 0.07697338 0.42069966
0.14903721 0.3747777 -0.09244819 -0.4738513 -0.15813841 -0.017235799 0.022643084 -0.025938539
-0.29919213 0.41871235 -0.28227836 -0.14560896 0.23631495 -0.41541472 -0.4515592 0.15268436
0.37004295 0.03147308 0.29241097 -0.2474662 0.2109328 0.004822644 -0.058727 0.50202984
-0.008313524 0.1687851 0.2887007 0.17134371 0.37216574 0.032743003 -0.22558647 -0.32359767
-0.10902796 0.043456916 -0.22188525 -0.35769498 0.04931131 0.48846203 0.51971555 0.17480521
00000000: 44d8 b2be ce8d a2be 2f8a 983e a01f 513e
00000010: 1c21 48be 881c eabe a2e5 673e a766 e93e
00000020: 7735 f2be c792 39be 0472 99be 7403 c83d
00000030: 31a7 15bf d9fa 9c3e e61f 84be 6cfe 003e
00000040: bb2d 71be 4cad 953d ae5b 8b3e 336c 45be
00000050: e9d5 273e 7aba 693d 5c54 acbe 04d5 223e
00000060: b1d9 033f 783f 90be 603a b53e 8a1d 5b3d
00000070: fb2a 5c3e b3df 03bf 8196 3ebe a930 683e
00000080: ab6e 623d 1052 43bc 0e89 d6be 40a2 6cbd
00000090: c6c5 57be 6263 88be 4b1e 8dbe 6172 e3bd
000000a0: 4ccc 783e 847e af3e 1ecd 953e 4bc2 843e
000000b0: f49a e0bd efe7 e23d 7082 e63e c201 473e
000000c0: 1988 56be 350d ffbd b37a 19bf fea2 3f3e
000000d0: 8778 89be b905 913d 5b93 a7be e420 893d
000000e0: 070c fd3e db21 893e 325a 063e 73db 34be
000000f0: a66d 633e 003a 1e3d 0ce8 0fbe b12e d63e
00000100: c88a 3cbe 0321 083e 97f2 74be 3b20 c03d
00000110: 91db 6cbc 7338 373e 5972 aebe bb30 9dbe
00000120: 1ef8 003f 59d1 d4be 7dbd 94be e61b a9be
00000130: 2671 ef3e ff19 56bc 847f 67be 1665 fa3c
00000140: 8925 9dbe bd7d 983e 7868 7abe fb02 363e
00000150: 8a11 b4be a2de a9be dfda 9bbe b35e a03e
00000160: 8442 61b9 d590 493e 2b83 083e b6e3 b5be
00000170: 2f15 e2be 6c46 b5be 09b5 8b3e 09d8 d2be
00000180: 98d5 cabe 9ef9 fcbb 3269 a23e 66fe 873d
00000190: c00b d3bc f2f6 50be 3ef2 37be c0ed f3bd
000001a0: 3f92 8abe 975d 8ebe 6abc 67be 3cb3 97be
000001b0: 14b5 233e 6cac 463e f6db aebd 9186 d13d
000001c0: 509b ccbc 5d75 e83c 6066 19bd 74ae cebd
000001d0: e578 0dbd 7fba e5bc eab3 76be 3817 cdbd
000001e0: 2760 4ebe 207b b73e 7e3e f53e 4a16 bb3e
000001f0: aad7 2cbe 1794 46be e63e 49be aeae 2fbd
00000200: ef41 b33e 95fe 0a3f 0906 843e 0466 a23e
00000210: c38a 9fbe a536 be3e 4806 ce3e e95f 2a3d
00000220: 209c 2f3d 4440 bcbe e3a5 0a3e fb00 d63e
00000230: cafd c43e debf 46bd 1b2e 073e d4e7 c2be
00000240: e7a3 203e 9bc1 b9be fd4e 5f3d 6e07 87be
00000250: e3eb 473e 046d 11be 83e4 1fbd c9b3 9dbe
00000260: d8bf 6dbe f324 ac3d 7e72 943e 9812 1a3d
00000270: 9eb3 35be da5d 89be 0dc4 243e a260 90be
00000280: 42d4 503e 8240 a63e 0176 96bd 23a4 ca3e
00000290: e902 36bd 9bc7 943e e140 203f 199c d5bd
000002a0: 5355 aebd d924 f83d 92ee 45be bc5c 8dbd
000002b0: 009c a93e 02e0 b93d 53b5 b93e d786 873e
000002c0: 15cd 353f 4b27 5bbe 030b abbe 605c 61bd
000002d0: bc6f bbbd fe1e 973e 355b 2b3e ff85 7c3d
000002e0: 13f5 103e 0fea 65be faeb 6fbe 0004 83be
000002f0: b049 623e efc8 683e 2d6b 3fbe b4f2 993e
00000300: cbc9 963e 6230 8ebc 8518 bd3e ca5a 56be
00000310: 5e39 01bf ce0d acbd f3a7 24be dcf2 e73a
00000320: 0987 bc3e 582f 0abd 92f1 e6bc a628 c73d
00000330: 3fca b1be 6e3f 533c b8de a33e d9e3 30be
00000340: 7dc4 41be 9380 afbc 16bd b53c a3e2 c5bd
00000350: f4f1 73be ae1a f0be 38a4 9d3d f265 d73e
00000360: 369d 183e dde2 bf3e 7a55 bdbd a39c f2be
00000370: 09ef 21be 1732 8dbc fd7d b93c 0f7d d4bc
00000380: b62f 99be 7761 d63e ca86 90be 841a 15be
00000390: 8cfc 713e 3db1 d4be c432 e7be 4a59 1c3e
000003a0: 4576 bd3e ebe9 003d e4b6 953e c867 7dbe
000003b0: c5fe 573e 4507 9e3b b98b 70bd 0785 003f
000003c0: 7235 08bc 00d6 2c3e 94d0 933e ba74 2f3e
000003d0: 828c be3e 871d 063d 2400 67be 98ae a5be
000003e0: 0d4a dfbd e1ff 313d e335 63be cc23 b7be
000003f0: a8fa 493d b217 fa3e 140c 053f 2300 333e

linear1.bias f4 [256]
-0.096642375 -0.11395533 0.43465713 -0.004053137 0.16409472 -0.13923584 -0.19201662 -0.08256587
-0.005743377 -0.20023453 -0.19633658 -0.17921332 -0.001431278 0.096930996 -0.17790747 -0.2412157
0.0042439806 -0.15271819 0.17640997 0.10043396 -0.016271949 -0.30311128 -0.038724918 -0.089872144
0.19924138 -0.22327495 0.183109 -0.12790313 0.00020879548 -0.0149798915 -0.13010085 -0.056505956
-0.1321769 0.43060267 0.20117816 0.0385493 0.48021227 -0.078606926 -0.20490023 -0.11234885
-0.23524447 -0.42241105 0.11495327 -0.20006426 -0.19964072 -0.042018775 -0.3623462 -0.2234507
-0.30962953 0.29573098 0.18463796 0.027985621 -0.29152998 -0.023019884 -0.03696191 -0.26033118
0.17844321 -0.26271442 -0.17963085 -0.058435198 0.3897944 -0.28121713 0.20069684 0.14517082
-0.26169556 -0.23753576 -0.2662866 -0.044816714 -0.041284986 0.19890168 0.045372013 0.27188092
-0.056961913 -0.25863674 0.3266036 -0.16717531 -0.14203936 0.6952117 -0.12183071 0.45415777
0.3113689 -0.20808573 -0.04707035 0.4190027 -0.031945016 0.2886654 0.12556672 0.07460553
0.063385256 0.17077455 -0.019651055 0.13455105 -0.0398279 -0.035431705 -0.2685631 0.23932968
0.1125555 -0.046674866 -0.12722564 0.11744438 -0.08517521 -0.06221987 0.24144343 -0.17399858
-0.12106845 0.113491744 0.020799825 -0.25403184 -0.003226967 -0.26504424 0.034702722 -0.19762808
-0.22446695 0.06701839 -0.042326782 -0.12713265 0.13798277 -0.13079855 0.04128172 -0.22020437
-0.25043115 0.0039752484 -0.11170677 0.053246833 0.0054630195 0.43526298 0.04393825 -0.108227536
-0.16952157 0.1679891 -0.010122566 -0.09935298 0.039068155 0.026461681 -0.035924356 -0.25197545
0.0047408505 0.053668957 -0.36670265 -0.107931346 -0.24074739 -0.21286948 -0.036461916 -0.24211976
0.12525284 -0.2648952 -0.23783702 0.1903139 0.3465409 -0.18102622 0.13605407 -0.285334
0.016891185 0.03500993 -0.09914244 -0.42565075 0.079993606 -0.0686363 -0.008705645 -0.14546852
-0.22872365 -0.10136672 -0.38875684 -0.38599038 0.49594456 0.35896897 -0.1790161 -0.180524
-0.053999063 -0.027932638 0.11219443 -0.05472628 -0.20196624 0.09242526 -0.14635608 0.6125182
0.31740135 0.07973438 -0.12325369 -0.28499055 0.22398655 -0.14952286 0.08846596 0.40998828
-0.0046799136 -0.20868425 0.077443555 -0.0066448795 -0.26731494 0.13481075 -0.010542541 -0.09161515
-0.2884907 -0.21720658 -0.41413414 0.044434886 0.18123654 -0.11376398 -0.30683002 -0.10603427
-0.31031302 -0.103375405 0.15576519 -0.15315044 -0.06938051 -0.37055838 -0.053832717 -0.22478473
-0.27261537 -0.15171269 -0.11444947 -0.16368154 0.25331753 -0.38239262 -0.031669114 -0.05286048
0.06458352 -0.28713703 0.3894303 -0.04996804 -0.120752975 -0.22773555 -0.16230513 0.047573414
-0.15251485 -0.09702723 -0.07262869 -0.030998148 0.01718675 -0.24115354 0.01622047 0.61273235
-0.046941888 0.11339223 -0.18036208 0.06122587 -0.2990052 -0.14220974 -0.1064585 -0.013354868
0.12854978 0.18943071 -0.2874902 0.1581784 0.0030199143 -0.033189934 0.26135567 -0.13639748
-0.21427168 -0.026102971 -0.11168654 0.13727652 -0.19886516 -0.31663153 -0.057353124 0.123886004
00000000: 70ec c5bd 6961 e9bd 618b de3e 2dd0 84bb
00000010: 7208 283e d793 0ebe 01a0 44be 4b18 a9bd
00000020: f032 bcbb 480a 4dbe 750c 49be b283 37be
00000030: b899 bbba c283 c63d 602d 36be 4001 77be
00000040: 1711 8b3b 2862 1cbe d1a4 343e 52b0 cd3d
00000050: c04c 85bc 6731 9bbe 059e 1ebd e30e b8bd
00000060: ef05 4c3e 30a2 64be ed80 3b3e 0af9 02be
00000070: 1cf0 5a39 386e 75bc 2839 05be ca72 67bd
00000080: 6259 07be f477 dc3e a601 4e3e dfe5 1d3d
00000090: 62de f53e abfc a0bd 5ed1 51be 2717 e6bd
000000a0: ede3 70be 4346 d8be 9f6c eb3d a5dd 4cbe
000000b0: 9e6e 4cbe e11b 2cbd 7185 b9be 43d0 64be
000000c0: c387 9ebe 0d6a 973e bc11 3d3e 1a42 e53c
000000d0: 6b43 95be 3294 bcbc 5f65 17bd 214a 85be
000000e0: d1b9 363e 8182 86be 26f1 37be bf59 6fbd
000000f0: 2293 c73e b1fb 8fbe 7983 4d3e a9a7 143e
00000100: f6fc 85be 933c 73be b856 88be bb91 37bd
00000110: 721a 29bd e2ac 4b3e 01d8 393d fa33 8b3e
00000120: e550 69bd 096c 84be 9638 a73e 0130 2bbe
00000130: c472 11be 65f9 313f 6182 f9bd 5e87 e83e
00000140: bf6b 9f3e 6d14 55be d7cc 40bd 8687 d63e
00000150: c7d8 02bd f4cb 933e 9094 003e c9ca 983d
00000160: 21d0 813d 86df 2e3e 40fb a0bc c0c7 093e
00000170: 9422 23bd d620 11bd 1a81 89be d712 753e
00000180: 7f83 e63d 252e 3fbd 7047 02be ae86 f03d
00000190: 5770 aebd 43da 7ebd f23c 773e af2c 32be
000001a0: bcf2 f7bd 5c6e e83d 6564 aa3c 7610 82be
000001b0: 867b 53bb e1b3 87be 7124 0e3d 045f 4abe
000001c0: aada 65be f040 893d d95e 2dbd 102f 02be
000001d0: 5b4b 0d3e 0ef0 05be 0517 293d 417d 61be
000001e0: 8338 80be cd42 823b 85c6 e4bd 5a19 5a3d
000001f0: 2103 b33b cada de3e 98f8 333d 66a6 ddbd
00000200: 1097 2dbe 5605 2c3e 1ed9 25bc 9379 cbbd
00000210: ee05 203d 2bc6 d83c 6b25 13bd ed02 81be
00000220: 2359 9b3b fbd3 5b3d 73c0 bbbe 1c0b ddbd
00000230: 7c86 76be 75fa 59be 1759 15bd 3eee 77be
00000240: 4842 003e 58a0 87be 8c8b 73be a6e1 423e
00000250: cf6d b13e f05e 39be c251 0b3e 4c17 92be
00000260: 625f 8a3c 9366 0f3d 310b cbbd e5ee d9be
00000270: b0d3 a33d 3091 8cbd 1fa2 0ebc b3f5 14be
00000280: 8836 6abe 5b99 cfbd 230b c7be 88a0 c5be
00000290: 72ec fd3e c8ca b73e ff4f 37be 49db 38be
000002a0: 1f2e 5dbd fdd2 e4bc 31c6 e53d aa28 60bd
000002b0: 3dd0 4ebe 7449 bd3d 5ede 15be fecd 1c3f
000002c0: 6e82 a23e c74b a33d 6e6c fcbd 48ea 91be
000002d0: bb5c 653e 851c 19be a42d b53d fce9 d13e
000002e0: f659 99bb 53b1 55be ba9a 9e3d 4abd d9bb
000002f0: 81dd 88be d40b 0a3e 9fba 2cbc b9a0 bbbd
00000300: 0eb5 93be 676b 5ebe 6409 d4be 5b01 363d
00000310: 1296 393e 17fd e8bd d318 9dbe 7f28 d9bd
00000320: 59e1 9ebe 7cb6 d3bd e980 1f3e 78d3 1cbe
00000330: 5e17 8ebd d4b9 bdbe b27f 5cbd f82d 66be
00000340: 3e94 8bbe 925a 1bbe 7c64 eabd 229c 27be
00000350: d6b2 813e f7c8 c3be 79b7 01bd 3b84 58bd
00000360: 5d44 843d a003 93be 6963 c73e 4aab 4cbd
00000370: 564d f7bd 8233 69be 5133 26be 57dc 423d
00000380: da2c 1cbe 36b6 c6bd 5abe 94bd d4ef fdbc
00000390: 3acb 8c3c f4f0 76be cbe0 843c 07dc 1c3f
000003a0: 2346 40bd 2f3a e83d d6b0 38be fac7 7a3d
000003b0: 3617 99be 6e9f 11be ea06 dabd 60ce 5abc
000003c0: 8ea2 033e 20fa 413e ea31 93be 85f9 213e
000003d0: c1e9 453b 2bf2 07bd 69d0 853e c8ab 0bbe
000003e0: 096a 5bbe e6d5 d5bc eabb e4bd 3792 0c3e
000003f0: 4fa3 4bbe 871d a2be 1ceb 6abd f2b7 fd3d

linear2.weight f4 [3, 256]
0.12545204 -0.16513287 0.33265123 -0.12566878 0.14943127 -0.034352012 0.5010767 0.1658796
0.35812524 0.025851011 -0.021899294 -0.19272646 0.09130388 0.058567777 -0.2839756 -0.22277907
-0.077711865 -0.19620131 0.1022951 -0.59530026 -0.36304337 -0.3458091 0.037518416 -0.14386615
0.113988854 -0.25047085 0.4163005 -0.41660732 -0.2836211 0.21664132 0.18500668 -0.09563544
-0.29947096 0.35382783 0.060186066 0.20746772 0.28316596 -0.07496184 -0.2719818 -0.1827527
0.048427552 -0.18903778 0.2713065 -0.13245314 -0.13200477 0.10076653 -0.33253902 -0.16714738
-0.20646608 0.33252984 0.04444542 0.12150044 0.088706 -0.16626908 -0.13436429 0.20691504
0.46149004 -0.12572627 -0.05292265 -0.4231746 0.3594975 0.10466601 -0.027783044 -0.27348685
-0.06043005 -0.1930266 0.0056082294 -0.29908884 -0.32348445 0.35386825 0.14139834 0.5003582
-0.031640656 -0.51815873 0.07637614 -0.43946138 -0.5443248 0.33799836 0.029056313 0.39883283
0.18737349 -0.4264473 -0.30507982 0.3467469 0.07997837 0.21398526 -0.42753372 0.045252122
0.35185963 0.41227114 0.107894026 0.35739788 -0.010162044 0.00770987 -0.014123455 0.38414973
-0.08544091 -0.0038471532 -0.35084864 -0.16784406 -0.07632858 0.069014825 0.13175976 -0.16915098
0.00823472 0.09197766 0.3694041 -0.115689516 -0.11371755 -0.094197854 -0.38412723 0.010203457
-0.18198459 0.045090895 -0.0055995216 -0.017927563 0.14667475 -0.17721798 0.03921407 -0.06570176
-0.08072862 -0.006593521 -0.23920025 -0.15167476 -0.047578745 0.51111996 -0.5332071 0.29123154
-0.5597581 -0.23595496 0.005009262 -0.14207047 0.27164415 -0.4172606 0.4235113 0.0018512461
-0.36063352 -0.39028907 -0.24980102 -0.07598365 -0.21966873 -0.11370651 0.047653966 -0.09376474
-0.5755637 -0.26627493 -0.3415724 0.5323645 0.34418753 0.0014821787 -0.050361436 -0.07610168
-0.292207 -0.1778644 -0.31251326 -0.19658123 0.20038843 -0.4665422 -0.012562966 -0.5490927
-0.045386285 -0.42367685 -0.09506844 0.010450742 0.26156002 0.35158065 -0.02638688 0.039502814
-0.05659796 -0.031506494 0.45014438 0.07277215 0.028483303 0.29461807 -0.2988701 0.37888658
0.34245017 -0.13375781 -0.5342485 -0.45582584 0.3184267 -0.22340861 0.34836087 0.34458077
-0.001446274 -0.057945486 0.12100255 -0.47491974 -0.10732544 0.28078127 0.13330467 0.2544057
0.034835733 -0.25285748 -0.19785829 0.24707927 0.35036647 -0.41923654 -0.10876691 -0.13780588
-0.287171 -0.09465018 0.120414115 0.028414998 0.0870213 0.051440395 0.115506075 -0.25450894
0.07451094 -0.42798534 0.0978803 -0.099439606 0.16191974 0.015321293 -0.7539548 0.008294895
0.04603371 -0.034463197 0.4192465 0.3077766 0.30152395 -0.42626253 -0.06708995 -0.032365657
0.01875413 -0.5057494 -0.22148591 -0.31327078 0.033913307 0.00808689 0.029707272 0.34026974
0.014127962 0.23117469 -0.23349734 0.42997497 -0.24126653 -0.05331019 -0.5136256 0.08025528
-0.1395288 -0.3028819 0.016020361 0.3490782 0.37859243 -0.3634525 0.28229937 -0.17584218
-0.0763018 -0.07704179 -0.072029024 0.05708705 -0.15900761 -0.35772634 -0.14348184 0.092606455
00000000: 8076 003e 9718 29be 4351 aa3e 51af 00be
00000010: 8304 193e b2b4 0cbd 9046 003f 58dc 293e
00000020: 315c b73e 80c5 d33c 2666 b3bc 165a 45be
00000030: 87fd ba3d c4e4 6f3d 4065 91be 3220 64be
00000040: 6627 9fbd ffe8 48be 1880 d13d 9965 18bf
00000050: d2e0 b9be e40d b1be e9ac 193d a651 13be
00000060: fd72 e93d b73d 80be 5725 d53e 8e4d d5be
00000070: c936 91be 39d7 5d3e 6472 3d3e 83dc c3bd
00000080: 4254 99be ec28 b53e aa85 763d 6b72 543e
00000090: 21fb 903e 9885 99bd 3341 8bbe 8623 3bbe
000000a0: f85b 463d 1f93 41be b0e8 8a3e cca1 07be
000000b0: 422c 07be af5e ce3d 8e42 aabe af28 2bbe
000000c0: d86b 53be 5a41 aa3e 670c 363d 39d5 f83d
000000d0: 7eab b53d 7142 2abe cb96 09be 89e1 533e
000000e0: 6c48 ec3e 63be 00be 6cc5 58bd 57aa d8be
000000f0: 0e10 b83e 225b d63d 4499 e3bc 7806 8cbe
00000100: 8085 77bd c4a8 45be 3dc5 b73b 2c22 99be
00000110: c19f a5be 382e b53e baca 103e 7a17 003f
00000120: a299 01bd 0da6 04bf 186b 9c3d 1501 e1be
00000130: df58 0bbf 1f0e ad3e 8107 ee3c d133 cc3e
00000140: d6de 3f3e 4d57 dabe 6c33 9cbe cf88 b13e
00000150: b3cb a33d f41e 5b3e b3e5 dabe 4a5a 393d
00000160: f226 b43e 3415 d33e 8bf7 dc3d dbfc b63e
00000170: b47e 26bc 14a3 fc3b 1066 67bc 46af c43e
00000180: a5fb aebd 8520 7cbb 6fa2 b3be 50df 2bbe
00000190: 2952 9cbd a557 8d3d 08ec 063e ea35 2dbe
000001a0: ebea 063c c95e bc3d 8922 bd3e a0ee ecbd
000001b0: bfe4 e8bd ceea c0bd 53ac c4be 672c 273c
000001c0: 2b5a 3abe 3bb1 383d 317c b7bb d3dc 92bc
000001d0: e831 163e a178 35be ef9e 203d a58e 86bd
000001e0: 0c55 a5bd 770e d8bb e9f0 74be a150 1bbe
000001f0: eee1 42bd c2d8 023f 4380 08bf 4d1c 953e
00000200: 4f4c 0fbf 2d9e 71be bc24 a43b ec7a 11be
00000210: f114 8b3e 2ea3 d5be 79d6 d83e 83a5 f23a
00000220: f5a4 b8be f8d3 c7be d7cb 7fbe 519d 9bbd
00000230: d7f0 60be f5de e8bd ce30 433d ba07 c0bd
00000240: 2558 13bf 3055 88be 94e2 aebe 0a49 083f
00000250: 5939 b03e aa45 c23a cb47 4ebd 33db 9bbd
00000260: 289c 95be 1622 36be bd01 a0be 974c 49be
00000270: a032 4d3e 9fde eebe e6d4 4dbc 5791 0cbf
00000280: f8e6 39bd 2cec d8be 3eb3 c2bd 9739 2b3c
00000290: 32eb 853e 6102 b43e 4c29 d8bc b4cd 213d
000002a0: 43d3 67bd f40c 01bd 5379 e63e 9109 953d
000002b0: d155 e93c 2ed8 963e 8005 99be 6cfd c13e
000002c0: a155 af3e cff7 08be 82c4 08bf 0162 e9be
000002d0: d308 a33e 3ac5 64be 5b5c b23e e46c b03e
000002e0: e790 bdba 3f58 6dbd 2fd0 f73d ae28 f3be
000002f0: 71cd dbbd 90c2 8f3e 0581 083e 7741 823e
00000300: eaaf 0e3d 8976 81be 5d9b 4abe 5902 7d3e
00000310: 3c63 b33e 2ca6 d6be 30c1 debd fc1c 0dbe
00000320: 1408 93be f4d7 c1bd ad9b f63d 92c6 e83c
00000330: 3938 b23d 2ab3 523d 738e ec3d ff4e 82be
00000340: 3199 983d e520 dbbe 7775 c83d fea6 cbbd
00000350: 4ace 253e 2906 7b3c 2f03 41bf 50e7 073c
00000360: d88d 3c3d 4829 0dbd 7aa7 d63e e594 9d3e
00000370: 5961 9a3e 153f dabe 7566 89bd da91 04bd
00000380: 43a2 993c cb78 01bf 34cd 62be 0765 a0be
00000390: aee8 0a3d e07e 043c aa5c f33c d637 ae3e
000003a0: f878 673c 0fb9 6c3e ed19 6fbe ae25 dc3e
000003b0: 930e 77be c95b 5abd f87c 03bf e15c a43d
000003c0: a3e0 0ebe 5613 9bbe 223d 833c 61ba b23e
000003d0: ded6 c13e 7216 babe 8b89 903e f90f 34be
000003e0: 1e44 9cbd 16c8 9dbd f483 93bd 1cd4 693d
000003f0: e4d2 22be e827 b7be e7ec 12be 74a8 bd3d

linear2.bias f4 [3]
0.2150151 -0.034857344 -0.048001707
00000000: eb2c 5c3e 93c6 0ebd 709d 44bd
